backend: tensorflow
class_name: Sequential
config:
  layers:
  - class_name: GaussianNoise
    config:
      batch_input_shape: !!python/tuple [null, 11]
      dtype: float32
      name: gaussian_noise_12
      stddev: 0.01
      trainable: true
  - class_name: Dense
    config:
      activation: relu
      activity_regularizer: null
      bias_constraint: null
      bias_initializer:
        class_name: Zeros
        config: {}
      bias_regularizer: null
      kernel_constraint: null
      kernel_initializer:
        class_name: VarianceScaling
        config: {distribution: uniform, mode: fan_avg, scale: 1.0, seed: null}
      kernel_regularizer: null
      name: dense_36
      trainable: true
      units: 11
      use_bias: true
  - class_name: Dense
    config:
      activation: relu
      activity_regularizer: null
      bias_constraint: null
      bias_initializer:
        class_name: Zeros
        config: {}
      bias_regularizer: null
      kernel_constraint: null
      kernel_initializer:
        class_name: VarianceScaling
        config: {distribution: uniform, mode: fan_avg, scale: 1.0, seed: null}
      kernel_regularizer: null
      name: dense_37
      trainable: true
      units: 5
      use_bias: true
  - class_name: Dense
    config:
      activation: relu
      activity_regularizer: null
      bias_constraint: null
      bias_initializer:
        class_name: Zeros
        config: {}
      bias_regularizer: null
      kernel_constraint: null
      kernel_initializer:
        class_name: VarianceScaling
        config: {distribution: uniform, mode: fan_avg, scale: 1.0, seed: null}
      kernel_regularizer: null
      name: dense_38
      trainable: true
      units: 3
      use_bias: true
  - class_name: Dense
    config:
      activation: linear
      activity_regularizer: null
      bias_constraint: null
      bias_initializer:
        class_name: Zeros
        config: {}
      bias_regularizer: null
      kernel_constraint: null
      kernel_initializer:
        class_name: VarianceScaling
        config: {distribution: uniform, mode: fan_avg, scale: 1.0, seed: null}
      kernel_regularizer: null
      name: dense_39
      trainable: true
      units: 1
      use_bias: true
  name: sequential_12
keras_version: 2.2.4
